…
10.138.0.2: 11/06/2024 21:02:25 - INFO - datasets.info - Loading Dataset info from /home/fot/.cache/huggingface/datasets/wikitext/wikitext-2-raw-v1-31a8eb8e26a3d2e8/0.0.0/b08601e04326c79dfdd32d625aee71d232d685c3
10.138.0.2: 11/06/2024 21:02:25 - INFO - datasets.builder - Found cached dataset wikitext (/home/fot/.cache/huggingface/datasets/wikitext/wikitext-2-raw-v1-31a8eb8e26a3d2e8/0.0.0/b08601e04326c79dfdd32d625aee71d232d685c3)
10.138.0.2: 11/06/2024 21:02:25 - INFO - datasets.info - Loading Dataset info from /home/fot/.cache/huggingface/datasets/wikitext/wikitext-2-raw-v1-31a8eb8e26a3d2e8/0.0.0/b08601e04326c79dfdd32d625aee71d232d685c3
10.138.0.64: OPTForCausalLM(
10.138.0.64:   (model): OPTModel(
10.138.0.64:     (decoder): OPTDecoder(
10.138.0.64:       (embed_tokens): Embedding(50272, 2560, padding_idx=1)
10.138.0.64:       (embed_positions): OPTLearnedPositionalEmbedding(2050, 2560)
10.138.0.64:       (final_layer_norm): LayerNorm((2560,), eps=1e-05, elementwise_affine=True)
10.138.0.64:       (layers): ModuleList(
10.138.0.64:         (0-31): 32 x OPTDecoderLayer(
10.138.0.64:           (self_attn): OPTAttention(
10.138.0.64:             (k_proj): Linear(in_features=2560, out_features=2560, bias=True)
10.138.0.64:             (v_proj): Linear(in_features=2560, out_features=2560, bias=True)
10.138.0.64:             (q_proj): Linear(in_features=2560, out_features=2560, bias=True)
10.138.0.64:             (out_proj): Linear(in_features=2560, out_features=2560, bias=True)
10.138.0.64:           )
10.138.0.64:           (activation_fn): ReLU()
10.138.0.64:           (self_attn_layer_norm): LayerNorm((2560,), eps=1e-05, elementwise_affine=True)
10.138.0.64:           (fc1): Linear(in_features=2560, out_features=10240, bias=True)
10.138.0.64:           (fc2): Linear(in_features=10240, out_features=2560, bias=True)
10.138.0.64:           (final_layer_norm): LayerNorm((2560,), eps=1e-05, elementwise_affine=True)
10.138.0.64:         )
10.138.0.64:       )
10.138.0.64:     )
10.138.0.64:   )
10.138.0.64:   (lm_head): Linear(in_features=2560, out_features=50272, bias=False)
10.138.0.64: )
10.138.0.64: model.decoder.embed_tokens.weight
10.138.0.64: model.decoder.embed_positions.weight
10.138.0.64: model.decoder.final_layer_norm.weight
10.138.0.64: model.decoder.final_layer_norm.bias
10.138.0.64: model.decoder.layers.0.self_attn.k_proj.weight
10.138.0.64: model.decoder.layers.0.self_attn.k_proj.bias
10.138.0.64: model.decoder.layers.0.self_attn.v_proj.weight
…
